 CUDA-version: 11050 (12020), cuDNN: 8.2.4, CUDNN_HALF=1, GPU count: 2  
 CUDNN_HALF=1 
 OpenCV version: 4.5.4
 0 : compute_capability = 750, cudnn_half = 1, GPU: NVIDIA GeForce RTX 2060 
   layer   filters  size/strd(dil)      input                output
   0 conv     32       3 x 3/ 1    640 x 352 x   3 ->  640 x 352 x  32 0.389 BF
   1 conv     64       3 x 3/ 2    640 x 352 x  32 ->  320 x 176 x  64 2.076 BF
   2 conv     64       1 x 1/ 1    320 x 176 x  64 ->  320 x 176 x  64 0.461 BF
   3 route  1 		                           ->  320 x 176 x  64 
   4 conv     64       1 x 1/ 1    320 x 176 x  64 ->  320 x 176 x  64 0.461 BF
   5 conv     32       1 x 1/ 1    320 x 176 x  64 ->  320 x 176 x  32 0.231 BF
   6 conv     64       3 x 3/ 1    320 x 176 x  32 ->  320 x 176 x  64 2.076 BF
   7 Shortcut Layer: 4,  wt = 0, wn = 0, outputs: 320 x 176 x  64 0.004 BF
   8 conv     64       1 x 1/ 1    320 x 176 x  64 ->  320 x 176 x  64 0.461 BF
   9 route  8 2 	                           ->  320 x 176 x 128 
  10 conv     64       1 x 1/ 1    320 x 176 x 128 ->  320 x 176 x  64 0.923 BF
  11 conv    128       3 x 3/ 2    320 x 176 x  64 ->  160 x  88 x 128 2.076 BF
  12 conv     64       1 x 1/ 1    160 x  88 x 128 ->  160 x  88 x  64 0.231 BF
  13 route  11 		                           ->  160 x  88 x 128 
  14 conv     64       1 x 1/ 1    160 x  88 x 128 ->  160 x  88 x  64 0.231 BF
  15 conv     64       1 x 1/ 1    160 x  88 x  64 ->  160 x  88 x  64 0.115 BF
  16 conv     64       3 x 3/ 1    160 x  88 x  64 ->  160 x  88 x  64 1.038 BF
  17 Shortcut Layer: 14,  wt = 0, wn = 0, outputs: 160 x  88 x  64 0.001 BF
  18 conv     64       1 x 1/ 1    160 x  88 x  64 ->  160 x  88 x  64 0.115 BF
  19 conv     64       3 x 3/ 1    160 x  88 x  64 ->  160 x  88 x  64 1.038 BF
  20 Shortcut Layer: 17,  wt = 0, wn = 0, outputs: 160 x  88 x  64 0.001 BF
  21 conv     64       1 x 1/ 1    160 x  88 x  64 ->  160 x  88 x  64 0.115 BF
  22 route  21 12 	                           ->  160 x  88 x 128 
  23 conv    128       1 x 1/ 1    160 x  88 x 128 ->  160 x  88 x 128 0.461 BF
  24 conv    256       3 x 3/ 2    160 x  88 x 128 ->   80 x  44 x 256 2.076 BF
  25 conv    128       1 x 1/ 1     80 x  44 x 256 ->   80 x  44 x 128 0.231 BF
  26 route  24 		                           ->   80 x  44 x 256 
  27 conv    128       1 x 1/ 1     80 x  44 x 256 ->   80 x  44 x 128 0.231 BF
  28 conv    128       1 x 1/ 1     80 x  44 x 128 ->   80 x  44 x 128 0.115 BF
  29 conv    128       3 x 3/ 1     80 x  44 x 128 ->   80 x  44 x 128 1.038 BF
  30 Shortcut Layer: 27,  wt = 0, wn = 0, outputs:  80 x  44 x 128 0.000 BF
  31 conv    128       1 x 1/ 1     80 x  44 x 128 ->   80 x  44 x 128 0.115 BF
  32 conv    128       3 x 3/ 1     80 x  44 x 128 ->   80 x  44 x 128 1.038 BF
  33 Shortcut Layer: 30,  wt = 0, wn = 0, outputs:  80 x  44 x 128 0.000 BF
  34 conv    128       1 x 1/ 1     80 x  44 x 128 ->   80 x  44 x 128 0.115 BF
  35 conv    128       3 x 3/ 1     80 x  44 x 128 ->   80 x  44 x 128 1.038 BF
  36 Shortcut Layer: 33,  wt = 0, wn = 0, outputs:  80 x  44 x 128 0.000 BF
  37 conv    128       1 x 1/ 1     80 x  44 x 128 ->   80 x  44 x 128 0.115 BF
  38 conv    128       3 x 3/ 1     80 x  44 x 128 ->   80 x  44 x 128 1.038 BF
  39 Shortcut Layer: 36,  wt = 0, wn = 0, outputs:  80 x  44 x 128 0.000 BF
  40 conv    128       1 x 1/ 1     80 x  44 x 128 ->   80 x  44 x 128 0.115 BF
  41 conv    128       3 x 3/ 1     80 x  44 x 128 ->   80 x  44 x 128 1.038 BF
  42 Shortcut Layer: 39,  wt = 0, wn = 0, outputs:  80 x  44 x 128 0.000 BF
  43 conv    128       1 x 1/ 1     80 x  44 x 128 ->   80 x  44 x 128 0.115 BF
  44 conv    128       3 x 3/ 1     80 x  44 x 128 ->   80 x  44 x 128 1.038 BF
  45 Shortcut Layer: 42,  wt = 0, wn = 0, outputs:  80 x  44 x 128 0.000 BF
  46 conv    128       1 x 1/ 1     80 x  44 x 128 ->   80 x  44 x 128 0.115 BF
  47 conv    128       3 x 3/ 1     80 x  44 x 128 ->   80 x  44 x 128 1.038 BF
  48 Shortcut Layer: 45,  wt = 0, wn = 0, outputs:  80 x  44 x 128 0.000 BF
  49 conv    128       1 x 1/ 1     80 x  44 x 128 ->   80 x  44 x 128 0.115 BF
  50 conv    128       3 x 3/ 1     80 x  44 x 128 ->   80 x  44 x 128 1.038 BF
  51 Shortcut Layer: 48,  wt = 0, wn = 0, outputs:  80 x  44 x 128 0.000 BF
  52 conv    128       1 x 1/ 1     80 x  44 x 128 ->   80 x  44 x 128 0.115 BF
  53 route  52 25 	                           ->   80 x  44 x 256 
  54 conv    256       1 x 1/ 1     80 x  44 x 256 ->   80 x  44 x 256 0.461 BF
  55 conv    512       3 x 3/ 2     80 x  44 x 256 ->   40 x  22 x 512 2.076 BF
  56 conv    256       1 x 1/ 1     40 x  22 x 512 ->   40 x  22 x 256 0.231 BF
  57 route  55 		                           ->   40 x  22 x 512 
  58 conv    256       1 x 1/ 1     40 x  22 x 512 ->   40 x  22 x 256 0.231 BF
  59 conv    256       1 x 1/ 1     40 x  22 x 256 ->   40 x  22 x 256 0.115 BF
  60 conv    256       3 x 3/ 1     40 x  22 x 256 ->   40 x  22 x 256 1.038 BF
  61 Shortcut Layer: 58,  wt = 0, wn = 0, outputs:  40 x  22 x 256 0.000 BF
  62 conv    256       1 x 1/ 1     40 x  22 x 256 ->   40 x  22 x 256 0.115 BF
  63 conv    256       3 x 3/ 1     40 x  22 x 256 ->   40 x  22 x 256 1.038 BF
  64 Shortcut Layer: 61,  wt = 0, wn = 0, outputs:  40 x  22 x 256 0.000 BF
  65 conv    256       1 x 1/ 1     40 x  22 x 256 ->   40 x  22 x 256 0.115 BF
  66 conv    256       3 x 3/ 1     40 x  22 x 256 ->   40 x  22 x 256 1.038 BF
  67 Shortcut Layer: 64,  wt = 0, wn = 0, outputs:  40 x  22 x 256 0.000 BF
  68 conv    256       1 x 1/ 1     40 x  22 x 256 ->   40 x  22 x 256 0.115 BF
  69 conv    256       3 x 3/ 1     40 x  22 x 256 ->   40 x  22 x 256 1.038 BF
  70 Shortcut Layer: 67,  wt = 0, wn = 0, outputs:  40 x  22 x 256 0.000 BF
  71 conv    256       1 x 1/ 1     40 x  22 x 256 ->   40 x  22 x 256 0.115 BF
  72 conv    256       3 x 3/ 1     40 x  22 x 256 ->   40 x  22 x 256 1.038 BF
  73 Shortcut Layer: 70,  wt = 0, wn = 0, outputs:  40 x  22 x 256 0.000 BF
  74 conv    256       1 x 1/ 1     40 x  22 x 256 ->   40 x  22 x 256 0.115 BF
  75 conv    256       3 x 3/ 1     40 x  22 x 256 ->   40 x  22 x 256 1.038 BF
  76 Shortcut Layer: 73,  wt = 0, wn = 0, outputs:  40 x  22 x 256 0.000 BF
  77 conv    256       1 x 1/ 1     40 x  22 x 256 ->   40 x  22 x 256 0.115 BF
  78 conv    256       3 x 3/ 1     40 x  22 x 256 ->   40 x  22 x 256 1.038 BF
  79 Shortcut Layer: 76,  wt = 0, wn = 0, outputs:  40 x  22 x 256 0.000 BF
  80 conv    256       1 x 1/ 1     40 x  22 x 256 ->   40 x  22 x 256 0.115 BF
  81 conv    256       3 x 3/ 1     40 x  22 x 256 ->   40 x  22 x 256 1.038 BF
  82 Shortcut Layer: 79,  wt = 0, wn = 0, outputs:  40 x  22 x 256 0.000 BF
  83 conv    256       1 x 1/ 1     40 x  22 x 256 ->   40 x  22 x 256 0.115 BF
  84 route  83 56 	                           ->   40 x  22 x 512 
  85 conv    512       1 x 1/ 1     40 x  22 x 512 ->   40 x  22 x 512 0.461 BF
  86 conv   1024       3 x 3/ 2     40 x  22 x 512 ->   20 x  11 x1024 2.076 BF
  87 conv    512       1 x 1/ 1     20 x  11 x1024 ->   20 x  11 x 512 0.231 BF
  88 route  86 		                           ->   20 x  11 x1024 
  89 conv    512       1 x 1/ 1     20 x  11 x1024 ->   20 x  11 x 512 0.231 BF
  90 conv    512       1 x 1/ 1     20 x  11 x 512 ->   20 x  11 x 512 0.115 BF
  91 conv    512       3 x 3/ 1     20 x  11 x 512 ->   20 x  11 x 512 1.038 BF
  92 Shortcut Layer: 89,  wt = 0, wn = 0, outputs:  20 x  11 x 512 0.000 BF
  93 conv    512       1 x 1/ 1     20 x  11 x 512 ->   20 x  11 x 512 0.115 BF
  94 conv    512       3 x 3/ 1     20 x  11 x 512 ->   20 x  11 x 512 1.038 BF
  95 Shortcut Layer: 92,  wt = 0, wn = 0, outputs:  20 x  11 x 512 0.000 BF
  96 conv    512       1 x 1/ 1     20 x  11 x 512 ->   20 x  11 x 512 0.115 BF
  97 conv    512       3 x 3/ 1     20 x  11 x 512 ->   20 x  11 x 512 1.038 BF
  98 Shortcut Layer: 95,  wt = 0, wn = 0, outputs:  20 x  11 x 512 0.000 BF
  99 conv    512       1 x 1/ 1     20 x  11 x 512 ->   20 x  11 x 512 0.115 BF
 100 conv    512       3 x 3/ 1     20 x  11 x 512 ->   20 x  11 x 512 1.038 BF
 101 Shortcut Layer: 98,  wt = 0, wn = 0, outputs:  20 x  11 x 512 0.000 BF
 102 conv    512       1 x 1/ 1     20 x  11 x 512 ->   20 x  11 x 512 0.115 BF
 103 route  102 87 	                           ->   20 x  11 x1024 
 104 conv   1024       1 x 1/ 1     20 x  11 x1024 ->   20 x  11 x1024 0.461 BF
 105 conv    512       1 x 1/ 1     20 x  11 x1024 ->   20 x  11 x 512 0.231 BF
 106 conv   1024       3 x 3/ 1     20 x  11 x 512 ->   20 x  11 x1024 2.076 BF
 107 conv    512       1 x 1/ 1     20 x  11 x1024 ->   20 x  11 x 512 0.231 BF
 108 max                5x 5/ 1     20 x  11 x 512 ->   20 x  11 x 512 0.003 BF
 109 route  107 		                           ->   20 x  11 x 512 
 110 max                9x 9/ 1     20 x  11 x 512 ->   20 x  11 x 512 0.009 BF
 111 route  107 		                           ->   20 x  11 x 512 
 112 max               13x13/ 1     20 x  11 x 512 ->   20 x  11 x 512 0.019 BF
 113 route  112 110 108 107 	                   ->   20 x  11 x2048 
 114 conv    512       1 x 1/ 1     20 x  11 x2048 ->   20 x  11 x 512 0.461 BF
 115 conv   1024       3 x 3/ 1     20 x  11 x 512 ->   20 x  11 x1024 2.076 BF
 116 conv    512       1 x 1/ 1     20 x  11 x1024 ->   20 x  11 x 512 0.231 BF
 117 conv    256       1 x 1/ 1     20 x  11 x 512 ->   20 x  11 x 256 0.058 BF
 118 upsample                 2x    20 x  11 x 256 ->   40 x  22 x 256
 119 route  85 		                           ->   40 x  22 x 512 
 120 conv    256       1 x 1/ 1     40 x  22 x 512 ->   40 x  22 x 256 0.231 BF
 121 route  120 118 	                           ->   40 x  22 x 512 
 122 conv    256       1 x 1/ 1     40 x  22 x 512 ->   40 x  22 x 256 0.231 BF
 123 conv    512       3 x 3/ 1     40 x  22 x 256 ->   40 x  22 x 512 2.076 BF
 124 conv    256       1 x 1/ 1     40 x  22 x 512 ->   40 x  22 x 256 0.231 BF
 125 conv    512       3 x 3/ 1     40 x  22 x 256 ->   40 x  22 x 512 2.076 BF
 126 conv    256       1 x 1/ 1     40 x  22 x 512 ->   40 x  22 x 256 0.231 BF
 127 conv    128       1 x 1/ 1     40 x  22 x 256 ->   40 x  22 x 128 0.058 BF
 128 upsample                 2x    40 x  22 x 128 ->   80 x  44 x 128
 129 route  54 		                           ->   80 x  44 x 256 
 130 conv    128       1 x 1/ 1     80 x  44 x 256 ->   80 x  44 x 128 0.231 BF
 131 route  130 128 	                           ->   80 x  44 x 256 
 132 conv    128       1 x 1/ 1     80 x  44 x 256 ->   80 x  44 x 128 0.231 BF
 133 conv    256       3 x 3/ 1     80 x  44 x 128 ->   80 x  44 x 256 2.076 BF
 134 conv    128       1 x 1/ 1     80 x  44 x 256 ->   80 x  44 x 128 0.231 BF
 135 conv    256       3 x 3/ 1     80 x  44 x 128 ->   80 x  44 x 256 2.076 BF
 136 conv    128       1 x 1/ 1     80 x  44 x 256 ->   80 x  44 x 128 0.231 BF
 137 conv    256       3 x 3/ 1     80 x  44 x 128 ->   80 x  44 x 256 2.076 BF
 138 conv     87       1 x 1/ 1     80 x  44 x 256 ->   80 x  44 x  87 0.157 BF
 139 yolo
[yolo] params: iou loss: ciou (4), iou_norm: 0.07, obj_norm: 1.00, cls_norm: 1.00, delta_norm: 1.00, scale_x_y: 1.20
 140 route  136 		                           ->   80 x  44 x 128 
 141 conv    256       3 x 3/ 2     80 x  44 x 128 ->   40 x  22 x 256 0.519 BF
 142 route  141 126 	                           ->   40 x  22 x 512 
 143 conv    256       1 x 1/ 1     40 x  22 x 512 ->   40 x  22 x 256 0.231 BF
 144 conv    512       3 x 3/ 1     40 x  22 x 256 ->   40 x  22 x 512 2.076 BF
 145 conv    256       1 x 1/ 1     40 x  22 x 512 ->   40 x  22 x 256 0.231 BF
 146 conv    512       3 x 3/ 1     40 x  22 x 256 ->   40 x  22 x 512 2.076 BF
 147 conv    256       1 x 1/ 1     40 x  22 x 512 ->   40 x  22 x 256 0.231 BF
 148 conv    512       3 x 3/ 1     40 x  22 x 256 ->   40 x  22 x 512 2.076 BF
 149 conv     87       1 x 1/ 1     40 x  22 x 512 ->   40 x  22 x  87 0.078 BF
 150 yolo
[yolo] params: iou loss: ciou (4), iou_norm: 0.07, obj_norm: 1.00, cls_norm: 1.00, delta_norm: 1.00, scale_x_y: 1.10
 151 route  147 		                           ->   40 x  22 x 256 
 152 conv    512       3 x 3/ 2     40 x  22 x 256 ->   20 x  11 x 512 0.519 BF
 153 route  152 116 	                           ->   20 x  11 x1024 
 154 conv    512       1 x 1/ 1     20 x  11 x1024 ->   20 x  11 x 512 0.231 BF
 155 conv   1024       3 x 3/ 1     20 x  11 x 512 ->   20 x  11 x1024 2.076 BF
 156 conv    512       1 x 1/ 1     20 x  11 x1024 ->   20 x  11 x 512 0.231 BF
 157 conv   1024       3 x 3/ 1     20 x  11 x 512 ->   20 x  11 x1024 2.076 BF
 158 conv    512       1 x 1/ 1     20 x  11 x1024 ->   20 x  11 x 512 0.231 BF
 159 conv   1024       3 x 3/ 1     20 x  11 x 512 ->   20 x  11 x1024 2.076 BF
 160 conv     87       1 x 1/ 1     20 x  11 x1024 ->   20 x  11 x  87 0.039 BF
 161 yolo
[yolo] params: iou loss: ciou (4), iou_norm: 0.07, obj_norm: 1.00, cls_norm: 1.00, delta_norm: 1.00, scale_x_y: 1.05
Total BFLOPS 77.755 
avg_outputs = 641517 
 Allocate additional workspace_size = 21.66 MB 
Loading weights from zoo/yolo-traffic.weights...net.optimized_memory = 0 
mini_batch = 1, batch = 32, time_steps = 1, train = 0 
Create CUDA-stream - 0 
…
